models/best_model.pth (torch, 217122 bytes, 20 tensors)

fc1.weight f4 [256, 34]
0.118342794 0.07960395 0.06440148 0.13448267 -0.10602792 -0.028427474 0.17238677 0.09548149
0.05177967 -0.14815924 -0.014345324 -0.0027428155 -0.09205978 -0.08691148 0.061343078 0.073906615
0.006560157 0.04287928 0.01762054 -0.033249877 -0.010357516 0.040557466 -0.12316714 -0.15384337
-0.05249895 0.009500636 -0.056956984 0.04032635 0.15893105 0.0051369187 0.031806048 0.09579451
-0.14183226 -0.09328602 0.02181326 -0.01454294 -0.0011276896 -0.025541665 0.05046129 0.113179795
-0.1112929 -0.061130557 -0.14887442 -0.1602975 -0.112932354 0.16029842 -0.12946491 0.14021288
0.18309173 0.09537422 0.03474137 0.035745706 -0.106053255 -0.09292264 0.076227464 0.12814651
-0.12547532 -0.1585421 -0.14432217 -0.04264045 -0.019869126 -0.064722225 0.15075861 -0.049784835
0.065249935 0.1565247 -0.012356081 0.06328792 -0.11155843 -0.006115211 0.07637486 -0.08760871
-0.121496186 -0.1667945 -0.074316874 -0.12342364 0.1329097 -0.1833287 -0.028091233 -0.122233614
0.036421537 -0.21370792 -0.053277574 -0.08938893 0.005327541 -0.024690008 -0.14647472 -0.02085287
-0.0037934172 -0.115188204 0.21527706 -0.09262111 0.12830943 -0.08173443 0.037108406 0.1407331
0.12961031 0.0073916237 -0.027156478 -0.05788274 0.03848946 0.054154046 0.052059013 -0.21235467
-0.04312672 -0.18563473 0.05171963 -0.20428862 -0.17084813 -0.03722174 0.07433707 0.08572057
0.14895308 0.0034491469 -0.09796092 0.03845432 0.10783126 0.099544756 -0.074475005 0.096474655
0.07705334 -0.13710941 -0.095482945 -0.02857238 0.048855532 -0.09274735 0.020834718 0.035142094
-0.12026333 0.099527694 0.034076214 0.09353178 -0.018119011 -0.03800691 0.029733378 0.039370053
0.07755842 -0.10146775 0.0014191805 -0.08645018 -0.13810898 0.13319904 0.03005727 0.034348752
-0.020686902 0.011622092 -0.033592843 -0.06448241 0.09895569 -0.21255139 0.16146475 0.026349401
-0.1041022 0.099637665 -0.09665403 0.03943738 -0.15734453 0.05757016 -0.086932614 -0.024589444
-0.0775106 0.12210419 -0.054794338 -0.055413853 -0.075946465 0.046924967 0.13021198 0.1406463
-0.103467435 -0.075389504 -0.08920993 0.04104032 -0.014925358 -0.063646704 0.14851433 -0.01639284
0.13120416 0.014451541 -0.108162776 -0.14232807 -0.104263365 0.03995658 0.1325537 -0.17166132
-0.0663896 0.19189225 -0.0070437863 0.0784253 -0.016596638 0.118667364 0.025097521 -0.09134201
-0.07445941 -0.028534865 0.07327196 -0.061436735 -0.020680798 0.08336935 -0.05181555 0.1406006
-0.06307944 0.10414918 0.06539841 0.0023019903 -0.07843269 0.09930899 0.06387458 0.16600615
-0.075871624 -0.10468737 0.1428991 -0.08957175 0.026917538 -0.06654574 -0.15618184 0.20581338
-0.12462602 -0.048264574 0.033638284 0.06500432 0.027828082 0.10979058 0.032673195 -0.15340371
-0.0007682562 -0.09792664 -0.12549078 0.031072395 -0.13273896 0.12977941 0.011837633 0.1421209
0.14911447 0.20821057 0.043687448 -0.11570412 0.07029482 -0.1070349 -0.07234346 -0.1164406
0.06830962 0.07817664 -0.03574842 0.08902389 -0.08363775 0.09407244 -0.13055453 0.11397797
0.03036479 0.13479698 -0.0456446 0.09817428 0.11374225 0.07735332 0.029092522 0.105092995
00000000: b55d f23d 6507 a33d ece4 833d d3b5 093e
00000010: 2b25 d9bd bce0 e8bc 2886 303e cd8b c33d
00000020: eb16 543d 0eb7 17be a608 6bbc cfc0 33bb
00000030: d789 bcbd a5fe b1bd e142 7b3d 5a5c 973d
00000040: 96f6 d63b 2fa2 2f3d f358 903c 0631 08bd
00000050: 92b2 29bc 961f 263d 0e3f fcbd 1e89 1dbe
00000060: 2409 57bd 8ea8 1b3c ba4b 69bd 3e2d 253d
00000070: d2be 223e 9953 a83b 0f47 023d e92f c43d
00000080: 7a3c 11be be0c bfbd b9b1 b23c 8345 6ebc
00000090: fcce 93ba c13c d1bc 7fb0 4e3d cfca e73d
000000a0: 88ed e3bd 0964 7abd 8972 18be 0725 24be
000000b0: 1449 e7bd 4525 243e 7392 04be f793 0f3e
000000c0: 667c 3b3e 8f53 c33d f74c 0e3d 176a 123d
000000d0: 7332 d9bd 3a4e bebd 251d 9c3d d738 033e
000000e0: 9a7c 00be dc58 22be 31c9 13be c1a7 2ebd
000000f0: 94c4 a2bc 168d 84bd 7760 1a3e 2feb 4bbd
00000100: c2a1 853d 0348 203e 2971 4abc 199d 813d
00000110: bf78 e4bd 1c62 c8bb 6c6a 9c3d 326c b3bd
00000120: fed2 f8bd 2dcc 2abe 7233 98bd 89c5 fcbd
00000130: 7b19 083e 85ba 3bbe 961f e6bc 9e55 fabd
00000140: c02e 153d 40d6 5abe 9639 5abd 8b11 b7bd
00000150: a792 ae3b b342 cabc 78fd 15be a3d3 aabc
00000160: fb9a 78bb cbe7 ebbd 9771 5c3e 23b0 bdbd
00000170: 8c63 033e 6164 a7bd fcfe 173d 561c 103e
00000180: 91b8 043e 6f35 f23b 4377 debc 7416 6dbd
00000190: 20a7 1d3d a2d0 5d3d d53b 553d 8173 59be
000001a0: a5a5 30bd 0817 3ebe f6d7 533d 0931 51be
000001b0: d0f2 2ebe d375 18bd 093e 983d 448e af3d
000001c0: 2887 183e 150b 623b bc9f c8bd 4782 1d3d
000001d0: a3d6 dc3d 1fde cb3d 5a86 98bd 8194 c53d
000001e0: 24ce 9d3d 6966 0cbe 908c c3bd a010 eabc
000001f0: bd1c 483d 53f2 bdbd 92ad aa3c 28f1 0f3d
00000200: 9f4c f6bd 2dd5 cb3d 8093 0b3d 978d bf3d
00000210: 526e 94bc 22ad 1bbd 6a93 f33c 7e42 213d
00000220: f3d6 9e3d 53ce cfbd cc03 ba3a cb0c b1bd
00000230: 716c 0dbe 5465 083e aa3a f63c 47b1 0c3d
00000240: 9477 a9bc 966a 3e3c a698 09bd 5b0f 84bd
00000250: 48a9 ca3d 12a7 59be 0457 253e b3da d73c
00000260: 8933 d5bd d50e cc3d 8cf2 c5bd 1789 213d
00000270: ed1e 21be b0ce 6b3d ba09 b2bd cd6f c9bc
00000280: e1bd 9ebd c311 fa3d 0770 60bd a3f9 62bd
00000290: d289 9bbd 6534 403d 4a56 053e 9505 103e
000002a0: bce6 d3bd d065 9abd b2b3 b6bd e519 283d
000002b0: 7d89 74bc 3459 82bd 2414 183e 474a 86bc
000002c0: 625a 063e 28c6 6c3c 7284 ddbd 73be 11be
000002d0: 0888 d5bd 83a9 233d 28bc 073e fcc7 2fbe
000002e0: 45f7 87bd 677f 443e 90cf e6bb 729d a03d
000002f0: acf5 87bc e007 f33d 5199 cd3c 8511 bbbd
00000300: 2d7e 98bd f3c1 e9bc 9c0f 963d 16a5 7bbd
00000310: c76a a9bc 8dbd aa3d 8b3c 54bd 9bf9 0f3e
00000320: cb2f 81bd 2a4c d53d 9aef 853d fddc 163b
00000330: 51a1 a0bd 8362 cb3d add0 823d 84fd 293e
00000340: 9562 9bbd 5566 d6bd 2454 123e 6571 b7bd
00000350: 2b82 dc3c 2249 88bd 22ee 1fbe bec0 523e
00000360: ed3b ffbd 13b1 45bd 4cc8 093d fc20 853d
00000370: b8f7 e33c e2d9 e03d 54d4 053d dd15 1dbe
00000380: cd64 49ba c38d c8bd a880 00be 898b fe3c
00000390: b9ec 07be e5e4 043e a2f2 413c 2488 113e
000003a0: 77b1 183e 2735 553e 9cf1 323d 48f6 ecbd
000003b0: bbf6 8f3d 1d35 dbbd cf28 94bd 6978 eebd
000003c0: eae5 8b3d 131b a03d ef6c 12bd 2852 b63d
000003d0: 454a abbd 0da9 c03d 16b0 05be 486d e93d
000003e0: 94bf f83c 3808 0a3e d5f5 3abd 990f c93d
000003f0: b2f1 e83d 6b6b 9e3d 7153 ee3c ff3a d73d

fc1.bias f4 [256]
-0.08445792 -0.13385394 -0.018361336 0.16196842 0.03897694 -0.09620074 -0.17232038 -0.104108974
0.097123645 0.03609356 -0.061055843 -0.15015543 0.0049255113 0.1055326 0.01691732 0.078690834
0.017495023 -0.104252025 0.085806265 0.1190833 -0.013696338 0.07409539 -0.12964728 0.026876092
-0.01698889 0.15198512 0.16985898 -0.019423557 0.15605873 0.06473115 0.023148093 0.14451638
0.05118858 -0.11787395 -0.01792969 0.15402156 0.017917568 0.036802385 0.017207496 -0.045176573
0.091715336 -0.016204812 -0.06002589 0.15506008 -0.02918779 0.026208509 -0.05363515 -0.062482804
0.07856031 0.043953907 -0.15531392 0.046145547 0.10805064 0.11254873 0.15451947 -0.097725265
0.098474 0.14488268 0.111581035 0.07878818 -0.10649768 0.043755863 0.09569682 0.09741401
-0.09993233 0.0362063 0.0945479 -0.12461256 0.031361893 -0.06287768 -0.006963566 0.015386228
0.088759206 -0.15054181 -0.08948136 0.0700348 0.005123605 0.1388015 0.15267958 -0.14409328
-0.058705635 0.11592897 -0.02780191 0.07290796 -0.0059737773 0.10993287 0.108026065 0.007915053
0.1375537 0.045432597 0.14879642 -0.15333264 0.04814292 -0.09074174 0.07327239 -0.02904927
0.12841773 0.12362332 -0.094135806 0.12924545 0.09689218 -0.08473465 -0.021918813 -0.09081634
0.1174305 -0.12783526 0.051245272 -0.16276611 -0.08780137 0.0018040194 0.1382287 0.11641034
-0.17472915 -0.07558805 -0.14357024 -0.0012209745 0.080534235 -0.06880341 -0.0020634406 -0.050202623
-0.07271676 -0.16451676 -0.15262622 0.14267436 -0.12055908 0.08218065 -0.15486498 -0.07802397
0.14149882 0.058460765 0.012567263 0.14430405 -0.0109218145 0.09387316 -0.14726467 -0.0481871
-0.0064794635 0.14214157 0.13547972 -0.14095527 -0.14125496 0.14701448 0.09229023 0.16890708
-0.08114859 0.046446096 0.02359961 -0.15248053 -0.12300684 0.11735153 -0.08802692 0.10226973
0.16689928 -0.13549715 0.12787169 -0.047254447 -0.04721785 -0.031670757 -0.0922353 0.037198175
-0.03250782 0.044139333 0.13785575 -0.15456764 0.052942276 -0.06855435 -0.08653166 -0.04117154
-0.054514173 -0.0095857205 -0.036200773 0.15806887 0.14378296 -0.044145204 0.09300482 0.038414378
0.06702777 0.050359666 0.02874803 0.16395167 -0.032585137 -0.0769632 0.09279615 -0.115215756
-0.018187003 0.11247302 -0.089021266 0.058672503 -0.06366261 0.13870955 -0.15889837 0.12291182
0.009858127 0.02004872 0.024175653 -0.111445345 0.05453483 -0.03594755 -0.083966486 0.039504465
-0.11051296 -0.024509015 -0.009089905 -0.10292593 0.011655609 0.10540283 -0.04570554 -0.09195119
0.0760483 0.07271561 -0.018552916 -0.11309681 -0.081765905 -0.09079905 0.019018762 -0.05157829
0.13740413 -0.14547372 -0.05826436 -0.086007595 -0.020741103 -0.10010495 0.054845374 0.15144864
-0.011184745 -0.1432087 0.03916528 0.14293383 0.027685639 -0.15114768 -0.110081926 0.05590146
0.037567362 -0.12300427 0.1209035 -0.009217606 0.14076132 0.10859304 0.16255184 -0.0946149
0.15351346 0.1085687 -0.014004516 0.036661636 -0.0064090285 0.04072821 0.01879993 -0.069810465
0.028133025 -0.07971997 -0.13027774 0.022416115 -0.030414531 0.017513592 -0.019791061 0.056818698
00000000: 46f8 acbd 0211 09be 836a 96bc 0ddb 253e
00000010: 49a6 1f3d e504 c5bd c174 30be 1637 d5bd
00000020: c3e8 c63d d7d6 133d b115 7abd 58c2 19be
00000030: 2f66 a13b 7a21 d83d 3196 8a3c a928 a13d
00000040: b951 8f3c 1682 d5bd 32bb af3d f2e1 f33d
00000050: 9b66 60bc 53bf 973d 42c2 04be 402b dc3c
00000060: 492c 8bbc fda1 1b3e 83ef 2d3e 271e 9fbc
00000070: dccd 1f3e c491 843d 12a1 bd3c 1afc 133e
00000080: 1eab 513d e667 f1bd 49e1 92bc d4b7 1d3e
00000090: ddc7 923c 19be 163d bcf6 8c3c 120b 39bd
000000a0: 40d5 bb3d f4bf 84bc b5dd 75bd 12c8 1e3e
000000b0: 3b1b efbc 3ab3 d63c 88b0 5bbd f8ed 7fbd
000000c0: 3ae4 a03d 0309 343d 9d0a 1fbe 1d03 3d3d
000000d0: a749 dd3d f37f e63d 5a3a 1e3e 2f24 c8bd
000000e0: bdac c93d 205c 143e 9984 e43d b35b a13d
000000f0: 751b dabd 5939 333d b2fc c33d ff80 c73d
00000100: 52a9 ccbd 0f4d 143d 54a2 c13d df34 ffbd
00000110: 5475 003d 03c6 80bd a02e e4bb 8516 7c3c
00000120: 63c7 b53d a227 1abe 0142 b7bd 686e 8f3d
00000130: eae3 a73b fb21 0e3e 0958 1c3e 308d 13be
00000140: 5275 70bd 2b6c ed3d d5c0 e3bc c550 953d
00000150: adbf c3bb 7c24 e13d c53c dd3d 23ae 013c
00000160: e1da 0c3e 8817 3a3d 175e 183e 3b03 1dbe
00000170: 8331 453d ced6 b9bd d60f 963d bcf8 edbc
00000180: f07f 033e 392e fd3d 46ca c0bd eb58 043e
00000190: 686f c63d 5c89 adbd 158f b3bc ebfd b9bd
000001a0: 677f f03d 3fe7 02be 90e6 513d 29ac 26be
000001b0: 34d1 b3bd d974 ec3a d38b 0d3e 8b68 ee3d
000001c0: 33ec 32be e8cd 9abd 1404 13be 1b09 a0ba
000001d0: 22ef a43d cde8 8cbd ca3a 07bb 44a1 4dbd
000001e0: 86ec 94bd 1577 28be 0c4a 1cbe 3a19 123e
000001f0: aee7 f6bd 544e a83d ed94 1ebe 08cb 9fbd
00000200: 11e5 103e 8e74 6f3d ece6 4d3c 71c4 133e
00000210: 69f1 32bc 9240 c03d 8dcc 16be d65f 45bd
00000220: ae51 d4bb 8f8d 113e 32bb 0a3e 9456 10be
00000230: 24a5 10be f78a 163e a902 bd3d faf5 2c3e
00000240: 3b31 a6bd 433e 3e3d f853 c13c db23 1cbe
00000250: 03eb fbbd 0056 f03d 7547 b4bd cb72 d13d
00000260: a5e7 2a3e c4bf 0abe ccf0 023e e18d 41bd
00000270: 8167 41bd 32b9 01bd dce5 bcbd 1d5d 183d
00000280: eb26 05bd 72cb 343d 0f2a 0d3e fb46 1ebe
00000290: 00da 583d 3966 8cbd 8337 b1bd 7da3 28bd
000002a0: 414a 5fbd 6d0d 1dbc 4347 14bd cedc 213e
000002b0: d73b 133e 9ad1 34bd 5079 be3d 6558 1d3d
000002c0: db45 893d f045 4e3d fd80 eb3c f2e2 273e
000002d0: fe77 05bd e29e 9dbd e80b be3d 3df6 ebbd
000002e0: e9fc 94bc 4158 e63d c850 b6bd 9452 703d
000002f0: 8b61 82bd e009 0e3e 41b6 22be 31b9 fb3d
00000300: fb83 213c 373d a43c 050c c63c 753d e4bd
00000310: ea5f 5f3d bd3d 13bd 9ff6 abbd 6fcf 213d
00000320: 9e54 e2bd 21c7 c8bc d3ed 14bc d4ca d2bd
00000330: 2bf7 3e3c 70dd d73d bb35 3bbd e850 bcbd
00000340: 36bf 9b3d eceb 943d 49fc 97bc 4d9f e7bd
00000350: e274 a7bd daf4 b9bd 3ccd 9b3c c243 53bd
00000360: abb3 0c3e 10f7 14be 9ca6 6ebd c024 b0bd
00000370: 3fe9 a9bc d303 cdbd 8ba5 603d 5a15 1b3e
00000380: 3840 37bc 4da5 12be c66b 203d 3f5d 123e
00000390: fecc e23c 75c6 1abe a272 e1bd eef8 643d
000003a0: 3ce0 193d aae9 fbbd 419c f73d 7105 17bc
000003b0: bc23 103e 0766 de3d fd73 263e 75c5 c1bd
000003c0: a232 1d3e 4459 de3d 3373 65bc 832a 163d
000003d0: d402 d2bb a0d2 263d 5002 9a3c caf8 8ebd
000003e0: 3b77 e63c 3944 a3bd 8767 05be 00a2 b73c
000003f0: e527 f9bc aa78 8f3c dd20 a2bc b9ba 683d

bn1.weight f4 [256]
1.0141542 1.0114262 0.9994804 1.0127233 0.9937725 0.9924101 1.0004439 0.9828202
1.0060561 0.993662 1.0161135 0.96909523 0.9712678 1.0432398 1.0312409 0.9990387
0.969169 0.97788864 1.0465114 1.0184283 0.9948254 0.9774365 1.0516856 0.9749558
1.0262716 0.99570537 1.0089632 1.010433 0.98524463 1.0024724 0.98138595 1.0162889
0.9758604 1.0037454 0.9754489 0.988969 1.0125115 1.0024441 0.998358 0.9754353
0.98041964 1.007806 0.98922247 1.0362382 1.0139866 1.0228317 0.9709467 0.9520636
0.9918336 0.9965294 0.9907847 0.944115 0.9986968 0.9925278 1.0067859 1.0047039
0.98184234 1.0023124 0.9737334 0.9819162 0.9863344 1.0118839 0.98906446 0.9867048
1.0107287 1.0127543 1.0222768 1.0192024 0.9950122 0.980734 1.0354562 0.99501294
0.97846615 0.9933777 0.9758044 1.0669862 1.0270206 0.97771513 0.9921435 0.9883467
1.0531839 0.9943915 1.0021083 0.9964877 0.99636906 1.0359592 1.0306759 0.97157824
0.97236645 1.0306575 0.97940195 0.9879975 1.0076195 1.0112002 0.98331946 0.98578227
0.9561623 0.9907567 0.98810226 0.99299175 1.0270318 1.0072198 1.028496 1.0035589
0.9972852 0.9913752 1.0418551 0.92484254 0.9620462 0.9911278 0.9952648 0.9960282
0.9770866 0.9969358 0.99870163 0.9786039 1.024365 0.95836246 0.9935274 0.9958388
1.0288111 0.9768445 0.97446585 0.9981394 1.0066539 1.0007777 1.027731 1.0385387
1.0026885 0.97683764 1.0086727 1.0008695 1.018074 1.0115837 1.0089908 0.99860185
0.99494827 1.0464052 0.9658706 1.0238518 1.0005041 1.0139533 0.9652257 1.022193
1.0322407 0.9848602 1.0002605 1.0169647 0.9812491 1.0374182 1.0354177 1.0082608
1.005605 1.0167364 0.9934066 0.97107196 0.9559592 0.9857233 0.9791536 1.0297453
1.0005578 1.0026507 0.98853195 0.9804288 1.0207028 1.0476288 1.0189486 0.93222797
1.0155181 0.97983354 0.9530892 0.99130243 0.98501104 0.96044576 1.0204922 0.9853075
1.0151652 0.97595066 0.9992993 0.9899628 0.9653131 1.0063637 1.0091147 1.0055515
1.065438 1.0148911 0.9695083 0.97496635 0.98261017 1.0366054 0.9847647 1.0021627
0.9813593 0.97139215 0.99681526 1.005655 0.9660141 0.9931162 1.0047256 0.9998261
1.0157789 0.9890685 0.98472065 0.997695 1.0003613 0.97125894 0.97257435 0.992381
1.0678403 0.97625226 0.99716055 0.9981117 0.96250737 0.9863129 0.9852117 0.99817246
1.0417995 0.9796628 0.97470987 0.97887254 1.0013424 1.0039195 0.97123325 1.0019206
1.0165578 1.016965 0.98222435 1.06521 0.9805115 0.977 0.98337156 1.0264281
0.9644315 0.99477446 1.0056951 0.99875385 0.986895 1.0207711 1.0349371 0.9705184
1.0015602 0.99020267 0.9901727 0.99756527 1.0002519 1.0139937 0.9834261 1.0124524
0.9717299 0.98952127 1.0156435 1.0136955 0.97564656 1.0029151 0.9593603 0.9944694
00000000: cecf 813f 6a76 813f f3dd 7f3f eba0 813f
00000010: e067 7e3f 970e 7e3f 8c0e 803f 1b9a 7b3f
00000020: 72c6 803f a260 7e3f 0210 823f a016 783f
00000030: 02a5 783f e288 853f b4ff 833f 00c1 7f3f
00000040: 761b 783f e956 7a3f 16f4 853f dc5b 823f
00000050: e1ac 7e3f 4739 7a3f a29d 863f b496 793f
00000060: de5c 833f 8ce6 7e3f b525 813f de55 813f
00000070: fe38 7c3f 0451 803f 1c3c 7b3f c115 823f
00000080: fdd1 793f bb7a 803f 05b7 793f 132d 7d3f
00000090: fa99 813f 1750 803f 6494 7f3f 21b6 793f
000000a0: c8fc 7a3f c9ff 803f af3d 7d3f 74a3 843f
000000b0: 50ca 813f 26ec 823f f78f 783f 71ba 733f
000000c0: cfe8 7d3f 8d1c 7f3f 11a4 7d3f 85b1 713f
000000d0: 98aa 7f3f 4d16 7e3f 5cde 803f 239a 803f
000000e0: 055a 7b3f c64b 803f 9846 793f dc5e 7b3f
000000f0: 6980 7c3f 6985 813f 5433 7d3f b098 7c3f
00000100: 8f5f 813f efa1 813f f7d9 823f 3975 823f
00000110: 1fb9 7e3f 6211 7b3f d489 843f 2bb9 7e3f
00000120: c27c 7a3f 004e 7e3f 51ce 793f 0193 883f
00000130: 6975 833f 8a4b 7a3f 1efd 7d3f 4a04 7d3f
00000140: bbce 863f 7190 7e3f 1645 803f d119 7f3f
00000150: 0b12 7f3f 509a 843f 30ed 833f 5ab9 783f
00000160: 02ed 783f 96ec 833f 16ba 7a3f 67ed 7c3f
00000170: adf9 803f 026f 813f d3ba 7b3f 3a5c 7c3f
00000180: 0dc7 743f 3ba2 7d3f 45f4 7c3f b534 7e3f
00000190: c775 833f 94ec 803f c2a5 833f 9e74 803f
000001a0: 154e 7f3f c4ca 7d3f 825b 853f 7bc2 6c3f
000001b0: a948 763f 8dba 7d3f adc9 7e3f b4fb 7e3f
000001c0: 5922 7a3f 2f37 7f3f e9aa 7f3f c985 7a3f
000001d0: 641e 833f 3e57 753f d057 7e3f 4bef 7e3f
000001e0: 15b0 833f 7b12 7a3f 9876 793f 1086 7f3f
000001f0: 09da 803f 7c19 803f b08c 833f d6ee 843f
00000200: 1958 803f 0812 7a3f 301c 813f 7e1c 803f
00000210: 4050 823f 937b 813f 9c26 813f 5fa4 7f3f
00000220: eeb4 7e3f 9bf0 853f 4c43 773f 930d 833f
00000230: 8510 803f 39c9 813f 0819 773f 38d7 823f
00000240: 7720 843f cc1f 7c3f 8908 803f e62b 823f
00000250: 2433 7b3f 1fca 843f 9188 843f b10e 813f
00000260: aab7 803f 6b24 823f e54f 7e3f 2c98 783f
00000270: beb9 743f 5d58 7c3f cfa9 7a3f b2ce 833f
00000280: 4712 803f dc56 803f 6e10 7d3f 62fd 7a3f
00000290: 64a6 823f b318 863f e86c 823f 7ea6 6e3f
000002a0: 7ffc 813f 5fd6 7a3f a7fd 733f ffc5 7d3f
000002b0: af29 7c3f c6df 753f 7d9f 823f 1d3d 7c3f
000002c0: eff0 813f e7d7 793f 14d2 7f3f 346e 7d3f
000002d0: c21e 773f 87d0 803f ac2a 813f e9b5 803f
000002e0: 4660 883f f4e7 813f b231 783f 6597 793f
000002f0: 578c 7b3f 7caf 843f 8a19 7c3f de46 803f
00000300: 5d3a 7b3f 28ad 783f 492f 7f3f 4eb9 803f
00000310: b34c 773f dd3c 7e3f d99a 803f 9af4 7f3f
00000320: 0b05 823f 9833 7d3f a716 7c3f f168 7f3f
00000330: d70b 803f 6da4 783f a2fa 783f ae0c 7e3f
00000340: feae 883f abeb 793f ea45 7f3f 4084 7f3f
00000350: e266 763f 017f 7c3f d536 7c3f 3b88 7f3f
00000360: b059 853f 2ecb 7a3f 9686 793f 6497 7a3f
00000370: fd2b 803f 6f80 803f bea2 783f ef3e 803f
00000380: 911e 823f e92b 823f 0e73 7b3f cd58 883f
00000390: cd02 7b3f ac1c 7a3f 3dbe 7b3f ff61 833f
000003a0: fce4 763f 8aa9 7e3f 9eba 803f 55ae 7f3f
000003b0: 27a5 7c3f a1a8 823f d278 843f e573 783f
000003c0: 2033 803f ec7d 7d3f f57b 7d3f 7060 7f3f
000003d0: 4108 803f 8cca 813f d0c1 7b3f 0a98 813f
000003e0: 4ac3 783f 4451 7d3f 9b00 823f c6c0 813f
000003f0: f9c3 793f 865f 803f a398 753f 8c95 7e3f

bn1.bias f4 [256]
-0.046350982 0.015803002 -0.063690774 -0.06934602 -0.044630703 -0.057582803 -0.0026649223 -0.06584987
-0.031924404 -0.070439205 -0.077068485 -0.018924003 -0.024492925 0.012374955 0.015952487 0.006872566
-0.055647437 -0.018928813 -0.020646872 -0.06007291 -0.052278817 -0.023503672 -0.03665407 -0.03752992
-0.048767753 -0.03982479 -0.045667045 -0.01910926 -0.013452319 -0.031421352 -0.076091416 -0.052518133
-0.039433338 -0.039280936 -0.059556033 -0.03735532 0.0035528697 0.007826398 -0.029515354 -0.065484375
-0.069484815 -0.07936331 -0.039083455 -0.060291253 0.0001942712 -0.023725841 -0.039077688 -0.071860604
-0.054739688 -0.047979407 -0.070232324 -0.06646072 -0.025702784 -0.05955173 -0.06894309 0.022539355
-0.04871258 -0.07036507 -0.07074471 -0.0077542616 -0.013968872 0.04436019 -0.052043356 -0.030971356
-0.050986722 -0.028865486 -0.046004847 -0.059274547 -0.027517205 -0.06457409 -0.026953476 -0.091291115
0.009708444 0.020786053 -0.022301676 -0.029439151 -0.028528865 -0.046749737 -0.034314882 -0.05508641
-0.06082356 -0.054734062 -0.017732672 -0.04128928 -0.011649736 -0.04625533 -0.03390623 -0.06409249
-0.066630624 -0.0139537295 -0.025495134 -0.042121533 -0.03597479 -0.053186323 -0.099672064 -0.059186246
-0.03223083 -0.018874628 -0.036504522 -0.026990823 -0.010820017 -0.03142909 -0.04811595 -0.019368628
-0.065413 -0.054369178 -0.012187471 -0.055646416 -0.008647268 -0.03015712 -0.014039208 -0.028097415
-0.018704247 -0.079937086 -0.047337666 -0.07552883 -0.09296625 -0.06894064 -0.06270968 -0.04320378
-0.09020232 -0.032526877 -0.10623298 -0.031171242 -0.021478832 -0.028697086 -0.0053014806 -0.011024653
-0.04889388 -0.07124244 -0.059471734 0.0136556765 -0.03129496 -0.029348593 -0.016229875 -0.006147003
-0.114673086 -0.022370974 -0.05894827 -0.045929186 -0.029750984 -0.044700023 -0.048946008 -0.054707218
-0.029479565 -0.1013996 -0.05282331 -0.081558466 -0.052405 -0.03409705 -0.034844406 0.008036294
-0.066719994 -0.03629016 -0.022337843 -0.069868565 -0.01427801 0.012426008 -0.079758376 0.006029104
-0.024567556 -0.016501058 -0.08382429 -0.032804266 -0.054435715 -0.024975613 -0.081502266 -0.1045644
-0.07545589 -0.05452716 -0.06289532 -0.007467008 0.007151886 -0.0660436 -0.03997487 -0.05030525
-0.106765956 -0.063185096 -0.058094077 -0.040286884 -0.030644273 -0.046001654 -0.021119999 -0.0426649
0.013181064 -0.050635748 -0.04552972 -0.05353798 -0.031313352 0.017065592 -0.038122293 -0.07528137
-0.06621977 -0.046514098 -0.021565005 -0.020155752 -0.03164429 -0.06379233 -0.032009173 -0.04149397
-0.014619363 -0.048123192 -0.04831844 -0.05329129 -0.021351965 -0.06450956 -0.06821984 -0.04922782
-0.065067664 -0.03563669 -0.02127664 -0.034242142 -0.06323795 -0.028766531 -0.067919865 -0.05870023
0.025535844 -0.017428353 -0.10240948 -0.02394215 -0.026388038 -0.032263316 -0.07433924 -0.04648811
-0.045316998 -0.03242791 -0.055145945 -0.03077477 -0.02932096 -0.0072360816 -0.049855746 -0.01108518
-0.019385917 -0.04107763 -0.01653966 -0.035525344 -0.03516266 0.041645583 -0.009322498 -0.013421067
-0.041153215 -0.04493234 -0.06590404 -0.03752075 -0.071570575 -0.06013088 -0.055458885 -0.0520148
-0.06501078 -0.044193372 -0.06353612 0.0013325668 -0.07405249 -0.04649982 -0.05374116 -0.0665437
00000000: 87da 3dbd 4c75 813c 4f70 82bd 4905 8ebd
00000010: afce 36bd f2db 6bbd faa5 2ebb 4cdc 86bd
00000020: 2ac3 02bd 6e42 90bd 15d6 9dbd 8306 9bbc
00000030: 63a5 c8bc 53c0 4a3c caae 823c 4333 e13b
00000040: 91ee 63bd 9910 9bbc a123 a9bc 030f 76bd
00000050: 5022 56bd c68a c0bc 9422 16bd f9b8 19bd
00000060: b2c0 47bd 521f 23bd 5e0d 3bbd 068b 9cbc
00000070: 1e67 5cbc adb3 00bd d1d5 9bbd 411d 57bd
00000080: da84 21bd 0ce5 20bd 07f1 73bd e401 19bd
00000090: 43d7 683b 4b3a 003c 2fca f1bc ac1c 86bd
000000a0: 0e4e 8ebd 3b89 a2bd f915 20bd f6f3 76bd
000000b0: 47b5 4b39 b25c c2bc ed0f 20bd a72b 93bd
000000c0: b936 60bd 0e86 44bd f7d5 8fbd 8f1c 88bd
000000d0: a58e d2bc 84ec 73bd 0932 8dbd 74a4 b83c
000000e0: d886 47bd 901b 90bd 9ae2 90bd 7617 febb
000000f0: b2dd 64bc 08b3 353d 6a2b 55bd a4b7 fdbc
00000100: 74d7 50bd 5077 ecbc 946f 3cbd dec9 72bd
00000110: c36b e1bc 6c3f 84bd 89cd dcbc d6f6 babd
00000120: 2a10 1f3c 8347 aa3c 01b2 b6bc 602a f1bc
00000130: 5eb5 e9bc a77c 3fbd c38d 0cbd 4aa2 61bd
00000140: 2022 79bd d330 60bd 1c44 91bc f31e 29bd
00000150: 89de 3ebc 3b76 3dbd 42e1 0abd ec42 83bd
00000160: a375 88bd 2f9e 64bc 2cdb d0bc a187 2cbd
00000170: 4d5a 13bd e7d9 59bd de20 ccbd 476d 72bd
00000180: 7a04 04bd f79e 9abc c485 15bd dc1b ddbc
00000190: 7146 31bc cabb 00bd 3b15 45bd f5aa 9ebc
000001a0: 40f7 85bd 37b2 5ebd f5ad 47bc 7fed 63bd
000001b0: 45ad 0dbc 110c f7bc b504 66bc 8d2c e6bc
000001c0: a639 99bc 0eb6 a3bd 24e5 41bd dcae 9abd
000001d0: 1765 bebd c030 8dbd ef6d 80bd 72f6 30bd
000001e0: febb b8bd e73a 05bd ad90 d9bd d55a ffbc
000001f0: 60f4 afbc 2716 ebbc 0bb8 adbb bfa0 34bc
00000200: f344 48bd 8ee7 91bd a298 73bd 0fbc 5f3c
00000210: 252f 00bd 766c f0bc 84f4 84bc cc6c c9bb
00000220: b9d9 eabd 5543 b7bc be73 71bd 3e20 3cbd
00000230: 56b8 f3bc 5f17 37bd 9c7b 48bd ad14 60bd
00000240: 217f f1bc 98aa cfbd 415d 58bd 2008 a7bd
00000250: a0a6 56bd 59a9 0bbd 02b9 0ebd a9aa 033c
00000260: 7ea4 88bd fea4 14bd dafd b6bc 4017 8fbd
00000270: 51ee 69bc 7496 4b3c 5c58 a3bd ca8f c53b
00000280: e641 c9bc 3a2d 87bc 12ac abbd c45d 06bd
00000290: fcf7 5ebd a899 ccbc a9ea a6bd dc25 d6bd
000002a0: 9e88 9abd df57 5fbd 43cf 80bd cead f4bb
000002b0: 5e5a ea3b de41 87bd b0bc 23bd e10c 4ebd
000002c0: 1ca8 dabd 3067 81bd 0ef4 6dbd dc03 25bd
000002d0: b309 fbbc 3b6c 3cbd d903 adbc 64c1 2ebd
000002e0: 64f5 573c 6e67 4fbd 5f7d 3abd a44a 5bbd
000002f0: 6e42 00bd 24cd 8b3c 1f26 1cbd 1e2d 9abd
00000300: 3b9e 87bd 9185 3ebd 18a9 b0bc ad1d a5bc
00000310: 719d 01bd 8ea5 82bd 0d1c 03bd 95f5 29bd
00000320: 0d86 6fbc d31c 45bd 8ee9 45bd f847 5abd
00000330: 51ea aebc 971d 84bd d8b6 8bbd 1ca3 49bd
00000340: 3242 85bd c7f7 11bd 594c aebc 7d41 0cbd
00000350: e682 81bd caa7 ebbc 9219 8bbd a76f 70bd
00000360: 8c30 d13c e8c5 8ebc 10bc d1bd 5422 c4bc
00000370: ba2b d8bc 8a26 04bd 2c3f 98bd 516a 3ebd
00000380: 519e 39bd 21d3 04bd b7e0 61bd 5f1b fcbc
00000390: 8332 f0bc a71c edbb 8a35 4cbd 9d9e 35bc
000003a0: 37cf 9ebc 0441 28bd 2e7e 87bc 0683 11bd
000003b0: b906 10bd 8f94 2a3d 64bd 18bc 09e4 5bbc
000003c0: 4690 28bd f90a 38bd b3f8 86bd 5caf 19bd
000003d0: 9893 92bd cc4b 76bd db28 63bd 790d 55bd
000003e0: 5f24 85bd 1c04 35bd 3a1f 82bd 86a9 ae3a
000003f0: d5a8 97bd 9876 3ebd b11f 5cbd 1048 88bd

bn1.running_mean f4 [256]
-0.111838475 -0.16001143 0.38110974 0.47349417 0.15276888 0.0223797 -0.20574553 -0.4055894
-0.22224541 0.0513732 -0.015133608 -0.43224105 -0.15155219 0.06428715 -0.053642046 0.030313319
0.08916564 -0.18463066 0.18157856 -0.11010724 0.1055198 0.02271408 -0.024288578 0.32492042
-0.102110505 0.098084055 0.29825976 0.043959267 0.37586468 0.39208922 -0.10221481 0.45663226
0.09751508 -0.27634943 -0.21471772 -0.03618904 0.016574107 0.020864306 0.13760878 0.026435321
0.47782263 -0.16216089 0.24524015 0.2535631 -0.17764899 0.060629778 -0.16663769 -0.29418364
0.18343239 0.023819024 -0.031201094 -0.02898262 0.32817888 0.19707198 -0.058420278 -0.123255156
-0.03125744 0.15805309 0.083654016 -0.20124006 -0.11096206 0.010688425 0.011168932 0.23315847
-0.046597037 0.11091925 0.025605785 -0.08147974 -0.14632538 0.09592602 0.030879749 0.13108575
0.10204618 -0.082132034 0.02743121 0.049039356 0.012374163 0.05356189 0.05375177 -0.13593197
-0.05134948 0.06319808 -0.07291719 0.22419071 -0.15647274 0.19827402 0.16494268 0.21062641
0.14194994 0.09705717 0.07646358 -0.10334702 -0.0020110873 0.01118437 -0.2090847 0.2861542
0.2172367 0.1352409 0.06324652 -0.01955251 0.24448773 -0.20094818 -0.039370216 0.13748749
0.06289871 -0.07730929 -0.057928443 0.03183336 -0.06381025 0.195361 0.104913525 0.3409744
-0.4249644 -0.14074971 -0.18055008 -0.26121378 0.033023022 -0.34806603 0.0025902335 -0.06652605
-0.027900655 -0.16601858 -0.02963807 0.25440943 0.18596768 -0.0012092423 -0.20221806 -0.17160495
0.17624497 0.18212722 -0.0022600996 0.06229871 0.06333126 0.008973796 -0.11685256 -0.24497598
0.017004035 0.20394097 0.22132543 -0.04031233 -0.10493546 0.14460085 0.38999858 0.11377971
-0.13917539 0.036094397 0.08424272 -0.13917609 -0.108171426 0.0779562 -0.046691105 0.029041883
0.23579776 -0.16511199 0.2254848 0.24529937 -0.09540191 0.17196035 -0.21445583 0.11860169
-0.028093621 0.21715786 0.14250474 -0.009059139 0.04301865 -0.023080282 0.18128346 0.0922074
-0.15095466 0.30944246 -0.13196369 0.324001 0.18921104 -0.20312183 -0.027535638 0.08850619
0.11037241 0.007664007 0.22347432 0.1526203 -0.2373159 -0.087118745 0.05337288 -0.2060465
0.08376386 0.11079209 0.035916712 0.17525814 -0.29505742 0.18389662 -0.21025503 0.1308244
0.06729737 -0.22537671 0.02611394 -0.0693386 0.16605388 0.14043665 -0.20231408 0.035872318
-0.03720996 0.2686283 -0.09890749 -0.071797565 0.06445888 0.08787813 -0.23457545 -0.03533255
0.10739382 0.14725682 0.032432042 -0.11283257 -0.16586833 -0.11887302 -0.019605938 0.11172767
0.27635768 -0.38505328 0.16055788 0.18039146 0.051243808 -0.13658325 0.43883926 -0.031933255
0.12617055 -0.09407352 0.00016641497 0.09254567 0.0051074913 -0.33043233 -0.097700045 -0.03113505
0.16042602 -0.07451369 0.07010889 0.025876516 -0.10439909 0.1948229 0.1367655 -0.13753866
0.04676849 0.34749427 -0.3610021 -0.034973644 0.107729554 0.11408586 0.07120278 -0.0029628754
0.1830835 -0.17166127 -0.08373978 0.13037524 -0.11430421 -4.9341877e-05 0.084126234 0.11543177
00000000: 920b e5bd 09da 23be d120 c33e d46d f23e
00000010: 726f 1c3e a255 b73c f5ae 52be 6aa9 cfbe
00000020: 4d94 63be b46c 523d f4f2 77bc b34e ddbe
00000030: 7f30 1bbe fba8 833d c3b7 5bbd a353 f83c
00000040: 7a9c b63d d20f 3dbe bbef 393e e87f e1bd
00000050: c41a d83d e112 ba3c d7f8 c6bc f85b a63e
00000060: 501f d1bd 4be0 c83d 81b5 983e a20e 343d
00000070: 5671 c03e ebbf c83e 0056 d1bd b4cb e93e
00000080: fcb5 c73d ac7d 8dbe f6de 5bbe f53a 14bd
00000090: 6cc6 873c 9feb aa3c 51e9 0c3e e38e d83c
000000a0: 2ba5 f43e 810d 26be 3c20 7b3e 06d3 813e
000000b0: 9ee9 35be ee56 783d 12a3 2abe 3d9f 96be
000000c0: b3d5 3b3e 1d20 c33c 7099 ffbc f66c edbc
000000d0: 1007 a83e 3dcd 493e 1a4a 6fbd 336d fcbd
000000e0: cd07 00bd abd8 213e cc52 ab3d e011 4ebe
000000f0: 1440 e3bd 811e 2f3c e5fd 363c 18c1 6e3e
00000100: 89dc 3ebd a229 e33d 39c3 d13c dade a6bd
00000110: 52d6 15be dc74 c43d 87f7 fc3c 583b 063e
00000120: 96fd d03d d734 a8bd 6bb7 e03c 7edd 483d
00000130: 00bd 4a3c b663 5b3d d12a 5c3d c031 0bbe
00000140: d553 52bd ff6d 813d 9c55 95bd 4092 653e
00000150: 643a 20be 5808 4b3e bce6 283e 73ae 573e
00000160: 535b 113e e9c5 c63d f098 9c3d 9aa7 d3bd
00000170: 72cc 03bb a63e 373c 4d1a 56be ce82 923e
00000180: 4c73 5e3e 977c 0a3e 6487 813d 962c a0bc
00000190: fe5a 7a3e 5cc5 4dbe aa42 21bd 85c9 0c3e
000001a0: 0ad1 803d 5554 9ebd 6046 6dbd b363 023d
000001b0: f3ae 82bd b70c 483e e7dc d63d 3294 ae3e
000001c0: ef94 d9be b120 10be 1fe2 38be d0bd 85be
000001d0: 2643 073d b635 b2be e8c0 293b cf3e 88bd
000001e0: ea8f e4bc c600 2abe 8acb f2bc f441 823e
000001f0: 506e 3e3e 707f 9eba 4012 4fbe 35b9 2fbe
00000200: 9079 343e 8f7f 3a3e 2e1e 14bb ef2c 7f3d
00000210: d2b3 813d d406 133c 6550 efbd fcda 7abe
00000220: 0c4c 8b3c e7d5 503e 22a3 623e 8b1e 25bd
00000230: 67e8 d6bd 3f12 143e e5ad c73e 5605 e93d
00000240: fe83 0ebe b8d7 133d 7287 ac3d 2d84 0ebe
00000250: fb88 ddbd 80a7 9f3d 2c3f 3fbd 3ee9 ed3c
00000260: f874 713e 1e13 29be 7de5 663e c22f 7b3e
00000270: 1462 c3bd 6016 303e 4f9a 5bbe 71e5 f23d
00000280: 9824 e6bc a15e 5e3e c3ec 113e c86c 14bc
00000290: 5334 303d dc12 bdbc 5fa2 393e 3cd7 bc3d
000002a0: dc93 1abe 3e6f 9e3e 7d21 07be 76e3 a53e
000002b0: 8ac0 413e 2bff 4fbe 6b92 e1bc bc42 b53d
000002c0: ee0a e23d 5a22 fb3b 74d6 643e 7f48 1c3e
000002d0: f002 73be 506b b2bd 859d 5a3d dbfd 52be
000002e0: 638c ab3d f7e6 e23d 671d 133d df76 333e
000002f0: c411 97be 654f 3c3e 184d 57be d5f6 053e
00000300: 34d3 893d 27c9 66be e7ec d53c 6501 8ebd
00000310: 070a 2a3e a0ce 0f3e 6c2b 4fbe daee 123d
00000320: 7969 18bd a689 893e 0390 cabd 9a0a 93bd
00000330: 0403 843d 73f9 b33d 8c34 70be ddb8 10bd
00000340: 4bf1 db3d 7eca 163e 76d7 043d c314 e7bd
00000350: 63d9 29be b373 f3bd a29c a0bc 7ad1 e43d
00000360: c17e 8d3e b425 c5be 4969 243e 8ab8 383e
00000370: 07e5 513d 7bdc 0bbe 8aaf e03e 72cc 02bd
00000380: da32 013e 9ea9 c0bd ae7f 2e39 9688 bd3d
00000390: be5c a73b 6d2e a9be f616 c8bd ef0e ffbc
000003a0: b846 243e a29a 98bd 4095 8f3d fdfa d33c
000003b0: 31cf d5bd a87f 473e 410c 0c3e efd6 0cbe
000003c0: 5190 3f3d c5ea b13e 44d5 b8be 8640 0fbd
000003d0: 50a1 dc3d d9a5 e93d c3d2 913d cd2c 42bb
000003e0: 3e7a 3b3e f9c7 2fbe c37f abbd 1681 053e
000003f0: 5318 eabd 70f4 4eb8 604a ac3d 7e67 ec3d

bn1.running_var f4 [256]
0.008653481 0.017884267 0.08382378 0.02327946 0.018814618 0.014695627 0.0173455 0.026506966
0.022317946 0.011091758 0.0061219614 0.034937937 0.01775294 0.012518642 0.012111878 0.004706149
0.019761542 0.017178467 0.0059902174 0.01722527 0.014585186 0.026217883 0.004891776 0.08048442
0.014401737 0.014125073 0.01791835 0.009921036 0.030960778 0.09001734 0.01879195 0.028712982
0.040941816 0.01576881 0.040525187 0.02750629 0.009300478 0.0123787 0.05088687 0.026283376
0.032050677 0.017427463 0.08919769 0.011845847 0.008391344 0.008067409 0.025666937 0.044632666
0.013653745 0.012327847 0.020377964 0.026540263 0.01189499 0.03192989 0.021215282 0.00918434
0.015650637 0.012837979 0.020356221 0.022808038 0.01349292 0.014919556 0.010061533 0.02042686
0.015059499 0.019836346 0.031727165 0.01785712 0.018664436 0.014663165 0.014595336 0.00875464
0.010613432 0.0132878255 0.018134687 0.007813659 0.009462346 0.008640186 0.021614265 0.023654617
0.004284107 0.003678477 0.011476413 0.033495974 0.014704318 0.013444568 0.009677669 0.0159481
0.022108424 0.012910474 0.015923131 0.022593537 0.018451046 0.021414999 0.046771407 0.026156407
0.030533217 0.015125187 0.015124232 0.02151928 0.012902219 0.015871564 0.0095092915 0.017514639
0.02465558 0.02291078 0.006830825 0.02702658 0.023030352 0.029563628 0.014195331 0.027396858
0.04359031 0.0070858505 0.0103031285 0.060614455 0.0079056835 0.02559045 0.009359217 0.0123177925
0.015613031 0.010000314 0.014930209 0.013026365 0.053031497 0.021757802 0.0065611894 0.014743336
0.010605596 0.016098449 0.010869239 0.01485534 0.012311358 0.014764367 0.009565308 0.026653757
0.018997915 0.009109191 0.021174699 0.012194194 0.022411464 0.0071560363 0.04197589 0.018883476
0.008397159 0.0141314855 0.014032613 0.040043794 0.008618829 0.01535194 0.012938385 0.01855559
0.009002808 0.007567957 0.010272624 0.033925544 0.02247609 0.04708872 0.012103171 0.009650007
0.010038771 0.0176342 0.023375 0.013097201 0.014876095 0.010736854 0.02128655 0.038940076
0.021917975 0.03522953 0.017747315 0.022572726 0.010575355 0.018601954 0.004591503 0.03361517
0.0054362486 0.016173506 0.015026415 0.010493882 0.03070283 0.0048752143 0.008555265 0.015916402
0.012245295 0.021222893 0.031015009 0.011033283 0.024487998 0.006894587 0.008930816 0.007428049
0.018259484 0.019062378 0.012619964 0.0123793315 0.038454976 0.029008837 0.018544456 0.012936177
0.024144338 0.046876542 0.020729093 0.027145794 0.023050737 0.018341713 0.039491512 0.0072713844
0.008253296 0.024074102 0.0069666863 0.012642172 0.041933797 0.006021413 0.01032659 0.018155245
0.013486915 0.03577636 0.021654852 0.018023985 0.0140250055 0.014870932 0.030348849 0.010405016
0.014605104 0.011073029 0.017604582 0.011578853 0.029663818 0.016827483 0.010301745 0.018778339
0.033136614 0.027080206 0.009345065 0.010866202 0.027134366 0.013357864 0.0074133156 0.017499238
0.012519525 0.044622336 0.021103408 0.01942303 0.015265888 0.026215727 0.012434427 0.011572115
0.039650925 0.012261777 0.009792116 0.017506192 0.008977252 0.0067441366 0.03770226 0.020773873
00000000: 54c7 0d3c 0782 923c cdab ab3d 91b4 be3c
00000010: 1d21 9a3c edc5 703c 2618 8e3c 2325 d93c
00000020: 20d4 b63c 34ba 353c bc9a c83b 151b 0f3d
00000030: 9d6e 913c fd1a 4d3c e670 463c 0a36 9a3b
00000040: f5e2 a13c dbb9 8c3c 9649 c43b 021c 8d3c
00000050: b4f6 6e3c e3c6 d63c 314b a03b 04d5 a43d
00000060: 43f5 6b3c da6c 673c 81c9 923c d78b 223c
00000070: 75a1 fd3c 035b b83d 93f1 993c 7d37 eb3c
00000080: 9bb2 273d 972d 813c bdfd 253d df54 e13c
00000090: 0861 183c 08d0 4a3c c06e 503d 3c50 d73c
000000a0: 9247 033d 0ac4 8e3c 47ad b63d 1515 423c
000000b0: d97b 093c 2a2d 043c 7843 d23c bed0 363d
000000c0: f5b3 5f3c bdfa 493c b0ef a63c f76a d93c
000000d0: 34e3 423c ebc8 023d accb ad3c ea79 163c
000000e0: c435 803c 6356 523c 17c2 a63c ecd7 ba3c
000000f0: 6911 5d3c 2771 743c 21d9 243c 3b56 a73c
00000100: 1ebc 763c d57f a23c 58f4 013d 1849 923c
00000110: 29e6 983c c63d 703c 4721 6f3c 9f6f 0f3c
00000120: f6e3 2d3c 2eb5 593c 328f 943c dc04 003c
00000130: f507 1b3c 918f 0d3c 6610 b13c 54c7 c13c
00000140: b261 8c3b 9a12 713b 9107 3c3c 1333 093d
00000150: 61ea 703c 9b46 5c3c 168f 1e3c 97a5 823c
00000160: ba1c b53c 7486 533c 3a71 823c 1516 b93c
00000170: a626 973c 826e af3c 6093 3f3d f645 d63c
00000180: cc20 fa3c a2cf 773c a0cb 773c 3349 b03c
00000190: d463 533c 1505 823c dccc 1b3c dc7a 8f3c
000001a0: 80fa c93c 63af bb3c 1dd5 df3b d966 dd3c
000001b0: 26aa bc3c 6c2f f23c 8993 683c 606f e03c
000001c0: c18b 323d 6c30 e83b 74ce 283c dd46 783d
000001d0: d786 013c 10a3 d13c 6757 193c 91d0 493c
000001e0: cccd 7f3c 5bd8 233c d69d 743c 896c 553c
000001f0: 8e37 593d 6b3d b23c 3fff d63b 088e 713c
00000200: 18c3 2d3c e5e0 833c e514 323c d063 733c
00000210: 94b5 493c 3ee6 713c cfb7 1c3c fb58 da3c
00000220: 84a1 9b3c b73e 153c 9076 ad3c 28ca 473c
00000230: 3f98 b73c 2f7d ea3b e9ee 2b3d 85b1 9a3c
00000240: 3d94 093c bf87 673c 0be9 653c f604 243d
00000250: fd35 0d3c b486 7b3c 85fb 533c e501 983c
00000260: 8380 133c a0fc f73b 824e 283c 83f5 0a3d
00000270: c71f b83c 1ae0 403d 614c 463c 101b 1e3c
00000280: a879 243c 9975 903c ee7c bf3c a495 563c
00000290: ddba 733c a1e9 2f3c 2261 ae3c a17f 1f3d
000002a0: 538d b33c d74c 103d d162 913c 70ea b83c
000002b0: 4144 2d3c 2063 983c 5274 963b 0fb0 093d
000002c0: 8f22 b23b 4d7e 843c 5a31 763c 88ee 2b3c
000002d0: 8084 fb3c 43c0 9f3b 622b 0c3c 1d63 823c
000002e0: 7da0 483c a2db ad3c 3013 fe3c f1c4 343c
000002f0: 0e9b c83c fdeb e13b 8f52 123c fe66 f33b
00000300: ea94 953c b428 9c3c f7c3 4e3c aed2 4a3c
00000310: f782 1d3d f1a3 ed3c 8bea 973c 42f2 533c
00000320: 59ca c53c 9e01 403d 0fd0 a93c db60 de3c
00000330: e6d4 bc3c 5c41 963c dac1 213d cb44 ee3b
00000340: d538 073c 0d37 c53c cd48 e43b 1d21 4f3c
00000350: c6c2 2b3d 464f c53b dc30 293c 4fba 943c
00000360: 39f8 5c3c 3c8a 123d 8465 b13c 09a7 933c
00000370: 23c9 653c 36a5 733c 269e f83c cd79 2a3c
00000380: 3f4a 6f3c a66b 353c 7c37 903c 3bb5 3d3c
00000390: 8901 f33c cad9 893c a6c8 283c 08d5 993c
000003a0: 42ba 073d 4fd7 dd3c 0b1c 193c 2808 323c
000003b0: e448 de3c f1da 5a3c 66eb f23b 905a 8f3c
000003c0: b21e 4d3c e9c5 363d 0ee1 ac3c 0c1d 9f3c
000003d0: c61d 7a3c 5dc2 d63c c4b9 4b3c f898 3d3c
000003e0: 0269 223d 9fe5 483c 1c6f 203c 2569 8f3c
000003f0: 5315 133c ebfd dc3b af6d 1a3d f82d aa3c

fc2.weight f4 [128, 256]
0.0034744062 -0.057359554 -0.053229075 0.03435642 0.01428175 0.011474933 -0.011435537 -0.021049246
0.014027978 0.027390154 -0.0067139706 -0.0022928193 0.0044528986 0.0028411767 -0.011594914 -0.018336078
-0.010233926 -0.019245323 -0.0155363465 -0.04549819 -0.025619898 0.04572545 -0.015523006 -0.0016914577
-0.024652041 0.022211684 -0.049408257 0.019012503 0.030503904 -0.07391893 0.04969489 0.012548758
0.04403927 -0.042450156 -0.025299955 0.03776823 -0.052197065 0.06514371 -0.024219772 0.04770054
0.043873634 0.05294182 -0.030231506 0.035325218 -0.016401676 -0.025354415 -0.07139281 0.043285992
-0.051960643 -0.030317882 0.0073508993 -0.012407359 -0.02257235 -0.06117074 -0.060767446 0.06169698
-0.06710576 0.005047208 -0.051683262 0.010568244 -0.039757702 -0.05299388 -0.06817946 0.0057285824
-0.049581394 -0.070213564 -0.014000055 0.036834057 0.06478319 0.030157637 -0.020730011 0.0069794394
-0.027717695 -0.021868557 0.016280001 -0.039841637 -0.029049221 -0.075168505 -0.022104902 0.053760562
-0.022593264 -0.026297318 -0.010445195 -0.02118906 0.010827841 0.020396339 0.08941344 0.019706806
-0.025526011 -0.06919313 -0.008876194 -0.05334373 -0.061193652 0.01496969 0.016267 0.0004751136
-0.029840248 0.052083492 -0.0015105068 -0.04142102 -0.061721925 0.023675822 0.008683067 -0.027410062
-0.040257826 -0.016956024 0.032349333 0.037968956 -0.017982498 -0.07637348 0.056844037 -0.039552987
-0.0064258333 0.015972761 -0.05719709 0.024872847 -0.063323155 0.049451105 -0.017736832 -0.021557128
-0.03826568 0.017360877 0.018737262 0.022236623 0.06893001 0.033526495 0.0010728104 0.036908954
0.054640125 -0.017261269 -0.053995773 0.00019612214 0.00042548604 -0.06322969 0.032476414 -0.03661234
-0.04814552 -0.026628563 0.021864465 -0.06267845 0.0145977065 -0.028546365 0.041178115 -0.003715442
0.04036314 -0.015896048 -0.03957367 -0.05351407 -0.023298878 0.01386166 0.051972024 -0.003385785
-0.022293866 0.04460134 -0.03299464 0.028012253 0.04374162 0.018098066 -0.008574389 0.051688917
0.028309781 0.028274251 -0.042065285 -0.044365495 -0.054002963 -0.010855715 -0.02943875 -0.037111767
-0.014632488 -0.0359616 -0.0006605511 0.012276347 -0.033842962 0.04766013 0.025979623 0.070086665
0.030562595 0.04828373 0.01367113 0.035470415 -0.015977703 -0.08692226 -0.040833775 -0.009222505
0.007159476 -0.049334772 -0.034794517 0.026207762 -0.017043918 -0.08531063 -0.021771068 -0.059729777
0.016673133 0.0028577945 -0.02055273 0.04246351 -0.023493322 0.0490435 0.016910136 -0.044948507
-0.07524275 -0.05590112 0.020307634 0.051093545 0.055872995 0.002834 0.0035966393 0.032854814
0.045812506 -0.0015431345 0.04970151 0.057393916 0.012237347 0.02444022 0.011135936 -0.055732887
-0.027771156 -0.057913203 -0.041949347 0.061625965 0.06841551 0.05828084 0.003110708 -0.025036547
-0.007293195 -0.06508629 0.00037589952 -0.039591786 -0.02586548 -0.0067503746 0.06186409 0.03092997
-0.023741394 0.024652155 0.07261447 -0.032215014 0.02404754 -0.021532565 -0.015293809 -0.018420056
-0.042924743 -0.01377038 0.022579595 -0.05850216 -0.027923508 0.031926457 0.025902601 -0.06530137
0.0022761086 0.021747291 0.035012934 0.07603969 0.018160697 -0.020436428 -0.054883696 -0.045819063
00000000: ddb2 633b daf1 6abd bb06 5abd 51b9 0c3d
00000010: 00fe 693c 5b01 3c3c 1e5c 3bbc 786f acbc
00000020: 9bd5 653c 5161 e03c de00 dcbb 2043 16bb
00000030: 9fe9 913b 0933 3a3b 98f8 3dbc 8b35 96bc
00000040: 32ac 27bc 5ea8 9dbc 298c 7ebc 4f5c 3abd
00000050: d2e0 d1bc 9c4a 3b3d 3554 7ebc e7b3 ddba
00000060: 14f3 c9bc 47f5 b53c 5060 4abd 1cc0 9b3c
00000070: 53e3 f93c cf62 97bd de8c 4b3d 4e99 4d3c
00000080: 8662 343d 37e0 2dbd da41 cfbc dcb2 1a3d
00000090: 97cc 55bd 116a 853d 8b68 c6bc a461 433d
000000a0: d7b4 333d 86d9 583d 10a8 f7bc 2db1 103d
000000b0: cf5c 86bc 10b4 cfbc 6536 92bd a74c 313d
000000c0: afd4 54bd 355d f8bc d0df f03b 3c48 4bbc
000000d0: a6e9 b8bc 2b8e 7abd 49e7 78bd f9b5 7c3d
000000e0: bf6e 89bd 0d63 a53b d4b1 53bd 6e26 2d3c
000000f0: f9d8 22bd 1c10 59bd aca1 8bbd d5b6 bb3b
00000100: dc15 4bbd 21cc 8fbd 7d60 65bc 4fdf 163d
00000110: 0dad 843d 260d f73c fcd1 a9bc c8b3 e43b
00000120: 3810 e3bc b025 b3bc a35d 853c fc30 23bd
00000130: a2f8 edbc f2f1 99bd 5715 b5bc 0934 5c3d
00000140: 8215 b9bc 796d d7bc 5322 2bbc ae94 adbc
00000150: 4267 313c 3916 a73c 651e b73d 2b70 a13c
00000160: ed1b d1bc 21b5 8dbd 756d 11bc f47e 5abd
00000170: 32a6 7abd 6e43 753c 5f42 853c ab18 f939
00000180: 8973 f4bc 8055 553d 33fc c5ba 16a9 29bd
00000190: 21d0 7cbd ccf3 c13c 6c43 0e3c 118b e0bc
000001a0: 64e5 24bd 5ce7 8abc bc80 043d 5685 1b3d
000001b0: 0850 93bc b369 9cbd 4bd5 683d 5002 22bd
000001c0: cc8f d2bb 4fd9 823c 7f47 6abd 24c2 cb3c
000001d0: 92af 81bd 3e8d 4a3d d54c 91bc 9398 b0bc
000001e0: 79bc 1cbd 6638 8e3c e37e 993c 9429 b63c
000001f0: 2d2b 8d3d 1453 093d 8b9d 8c3a d82d 173d
00000200: 53ce 5f3d 8167 8dbc ac2a 5dbd 23a6 4d39
00000210: c513 df39 917e 81bd fd05 053d d2f6 15bd
00000220: 3d34 45bd 2524 dabc 1b1d b33c 8f5d 80bd
00000230: 382b 6f3c 11da e9bc 62aa 283d c67e 73bb
00000240: d253 253d 6e38 82bc 0018 22bd 9231 5bbd
00000250: 4add bebc 041c 633c 9ee0 543d 0ce4 5dbb
00000260: a0a1 b6bc e5af 363d 6325 07bd f479 e53c
00000270: 6a2a 333d 6542 943c 987b 0cbc c2b7 533d
00000280: eae9 e73c 679f e73c a64c 2cbd 98b8 35bd
00000290: 3632 5dbd 2bdc 31bc 8929 f1bc 8202 18bd
000002a0: 1abd 6fbc 784c 13bd d528 2dba bb22 493c
000002b0: eb9e 0abd 4537 433d 38d3 d43c 9989 8f3d
000002c0: 685e fa3c 29c5 453d e0fc 5f3c 6d49 113d
000002d0: ace3 82bc 4c04 b2bd 5141 27bd fd19 17bc
000002e0: 0a9a ea3b 4213 4abd b284 0ebd a9b1 d63c
000002f0: b09f 8bbc 57b7 aebd 3d59 b2bc 36a7 74bd
00000300: 1896 883c d649 3b3b 335e a8bc 38ee 2d3d
00000310: 1175 c0bc d6e1 483d 2087 8a3c ed1b 38bd
00000320: df18 9abd 93f8 64bd 325c a63c 7747 513d
00000330: 15db 643d a1ba 393b 98b5 6b3b c592 063d
00000340: e5a5 3b3d 0043 caba d093 4b3d e215 6b3d
00000350: 277f 483c db36 c83c 8073 363c 2b48 64bd
00000360: 5680 e3bc 6536 6dbd 14d3 2bbd 826b 7c3d
00000370: 6e1d 8c3d e4b7 6e3d 05dd 4b3b 7219 cdbc
00000380: c1fb eebb f64b 85bd 6114 c539 ff2a 22bd
00000390: d8e3 d3bc 3f32 ddbb 3365 7d3d d960 fd3c
000003a0: 507d c2bc 51f3 c93c e5b6 943d e4f3 03bd
000003b0: 59ff c43c 1065 b0bc e292 7abc a8e5 96bc
000003c0: dbd1 2fbd 299d 61bc d8f8 b83c f69f 6fbd
000003d0: d7bf e4bc 51c5 023d b131 d43c babc 85bd
000003e0: c42a 153b 6027 b23c b969 0f3d b2ba 9b3d
000003f0: bec5 943c 4c6a a7bc bacd 60bd c5ac 3bbd

fc2.bias f4 [128]
-0.049553458 0.02405853 -0.0354417 -0.023912482 0.035528496 0.009563035 0.024019748 -0.053382933
0.020734902 -0.046372306 0.052217465 -0.031993553 0.01639635 -0.007144788 -0.041234955 0.06109131
-0.009789174 0.005116478 0.004233005 0.031297877 -0.061033804 0.019424122 -0.012898006 0.009291531
-0.04919834 0.036124945 0.0029168623 0.048946116 -0.023901422 -0.021960218 -0.018070767 -0.039525498
0.042827904 -0.03228556 0.02345743 0.012179484 -0.05684738 0.023248075 0.026127568 -0.032964267
0.004045255 -0.024147313 -0.049950607 0.022510694 -0.02520874 -0.049940817 -0.02071056 0.019271506
-0.059451584 -0.029719409 0.018589634 0.05113622 -0.014089208 0.045701146 0.0292174 0.042247806
-0.057932213 -0.03399462 0.0035579363 -0.02481846 0.048737396 -0.01939689 -0.0154685145 0.04146168
0.04394195 -0.0034866894 -0.0048158416 0.04631726 -0.041225776 -0.020349432 -0.055512257 0.04008367
0.035638213 -0.04475442 0.0141557045 0.038004734 0.012262987 0.037585594 0.034091163 -0.021841073
0.046772983 -0.0403373 -0.014867618 0.025017498 -0.017616538 0.02493701 -0.023363683 0.0452177
0.00030305592 0.030648258 -0.060183894 -0.019721065 -0.0063658585 -0.05843485 -0.039537754 0.015719956
-0.016413804 0.027746385 0.015669892 0.051911086 0.060194418 -0.053706523 0.031283274 -0.017056825
0.0061980947 0.01452573 -0.020673357 -0.00075164187 0.020703238 -0.051195964 0.031845298 0.043312382
-0.0011307052 0.02151779 -0.024555659 0.060777172 0.04391831 0.02673629 0.03583241 -0.026162395
-0.01261279 -0.030100984 0.034613833 0.008338445 0.008522247 -0.010611733 0.022411043 -0.042660292
00000000: 91f8 4abd 6516 c53c 512b 11bd 1ce4 c3bc
00000010: 5486 113d 47ae 1c3c 10c5 c43c 10a8 5abd
00000020: 3edc a93c e3f0 3dbd fbe1 553d ac0b 03bd
00000030: a351 863c d31e eabb fce5 28bd e23a 7a3d
00000040: c662 20bc 21a8 a73b 05b5 8a3b 3432 003d
00000050: 95fe 79bd 561f 9f3c 2852 53bc 813b 183c
00000060: 3384 49bd c0f7 133d d428 3f3b b97b 483d
00000070: eacc c3bc eae5 b3bc 2509 94bc 7de5 21bd
00000080: 506c 2f3d dd3d 04bd cc29 c03c 758c 473c
00000090: ccd8 68bd bf72 be3c 7b09 d63c 8a05 07bd
000000a0: 0f8e 843b 96d0 c5bc 0299 4cbd 5968 b83c
000000b0: 8f82 cebc be8e 4cbd 31a9 a9bc 47df 9d3c
000000c0: 8183 73bd 1e76 f3bc 4a49 983c 3774 513d
000000d0: 6cd6 66bc 2031 3b3d 5459 ef3c 090c 2d3d
000000e0: 544a 6dbd f13d 0bbd 442c 693b 1550 cbbc
000000f0: dda0 473d 3ae6 9ebc a76f 7dbc b9d3 293d
00000100: 79fc 333d f180 64bb 35ce 9dbb 2bb7 3d3d
00000110: 5cdc 28bd dab3 a6bc d260 63bd c62e 243d
00000120: 60f9 113d 6950 37bd 54ed 673c daaa 1b3d
00000130: b2ea 483c 5af3 193d 2da3 0b3d 0dec b2bc
00000140: 0795 3f3d ba38 25bd 4f97 73bc 7ff1 cc3c
00000150: 8f50 90bc b348 cc3c 3265 bfbc 3236 393d
00000160: 7ae3 9e39 0e12 fb3c 6383 76bd 128e a1bc
00000170: b198 d0bb 6259 6fbd 57f2 21bd 23c7 803c
00000180: 3e76 86bc 634c e33c 255e 803c b8a0 543d
00000190: 6c8e 763d 5ffb 5bbd e422 003d c1ba 8bbc
000001a0: 6319 cb3b 54fd 6d3c 2c5b a9bc d509 45ba
000001b0: d699 a93c dcb2 51bd 3770 023d 5368 313d
000001c0: 2c34 94ba 1446 b03c f328 c9bc 7cf1 783d
000001d0: b0e3 333d 1006 db3c 01c5 123d 8552 d6bc
000001e0: e0a5 4ebc 5796 f6bc 3cc7 0d3d f99d 083c
000001f0: e5a0 0b3c d6dc 2dbc 5d97 b73c 8fbc 2ebd

bn2.weight f4 [128]
0.96519345 0.9963605 0.99194795 0.9733136 1.0239503 0.9933009 0.99825245 1.0235978
1.0139573 0.9614952 1.0036263 0.97489214 1.0355123 0.99921846 0.96753174 0.9949813
0.9714705 0.99388975 0.98811346 0.9828795 1.0240303 0.9846427 0.98358935 1.0325862
1.0095445 0.99957144 0.96069485 1.0001104 1.015373 0.9992359 1.0180866 0.9788454
1.0195693 0.9730816 1.0342152 1.0123951 1.009571 1.009277 0.9923741 0.99206424
0.99967664 1.0020602 1.0054543 0.99140203 0.98300433 1.0013868 0.9979221 0.987575
1.0335189 1.0175707 0.9811466 0.9687998 1.0011605 0.96801746 0.9976761 0.9905584
0.9807342 1.0041057 0.98404855 0.9860288 1.0118965 1.0115702 1.0170374 0.9918138
1.0129861 0.987047 1.0139071 0.9860603 1.0065618 1.0074563 0.99342316 0.9833641
1.0073699 0.99020505 0.9759925 0.99302745 1.0049102 0.99225396 1.0063255 1.0181907
0.9775122 0.9947921 1.0289545 1.0160079 1.0055352 0.9447831 1.0181813 0.9953828
0.9784392 0.9421367 1.0213414 1.0021691 1.0190774 0.9955403 1.016216 1.0289699
1.0291321 0.9915103 0.9694168 0.98000574 1.050019 1.0234115 0.99218315 1.0064002
0.9950374 0.9964721 0.98459625 0.9784561 0.97742903 1.0176347 0.9983718 0.98657274
1.0464575 0.9683263 0.98687094 1.0129226 0.981996 0.99780566 1.0145166 1.0401921
0.9802962 1.049112 0.992483 0.9858908 1.0081993 1.0288491 0.9668992 1.0335426
00000000: eb16 773f 7b11 7f3f 4df0 7d3f 152b 793f
00000010: ce10 833f f848 7e3f 798d 7f3f 4105 833f
00000020: 5ac9 813f 8d24 763f d476 803f 8892 793f
00000030: ab8b 843f c8cc 7f3f 29b0 773f 18b7 7e3f
00000040: 4ab2 783f 8f6f 7e3f 01f5 7c3f fe9d 7b3f
00000050: 6d13 833f 8b11 7c3f 83cc 7b3f c92b 843f
00000060: c138 813f eae3 7f3f 19f0 753f 9e03 803f
00000070: bef7 813f edcd 7f3f a950 823f 9d95 7a3f
00000080: 3f81 823f e01b 793f 2a61 843f 2a96 813f
00000090: 9f39 813f fd2f 813f 3b0c 7e3f ecf7 7d3f
000000a0: cfea 7f3f 8243 803f bab2 803f 86cc 7d3f
000000b0: 2ca6 7b3f 712d 803f d377 7f3f b7d1 7c3f
000000c0: 594a 843f c23f 823f 6c2c 7b3f 4403 783f
000000d0: 0726 803f fecf 773f b367 7f3f 3c95 7d3f
000000e0: 6611 7b3f 8986 803f 9bea 7b3f 626c 7c3f
000000f0: d385 813f 227b 813f 482e 823f 82e7 7d3f
00000100: 87a9 813f 1daf 7c3f b5c7 813f 736e 7c3f
00000110: 04d7 803f 54f4 803f fb50 7e3f c0bd 7b3f
00000120: 7ff1 803f 147e 7d3f a5da 793f 0c37 7e3f
00000130: e6a0 803f 5b04 7e3f 46cf 803f 1354 823f
00000140: 3d3e 7a3f b2aa 7e3f c8b4 833f 8c0c 823f
00000150: 61b5 803f 4edd 713f c453 823f 68d1 7e3f
00000160: fe7a 7a3f df2f 713f 51bb 823f 1447 803f
00000170: 2171 823f bbdb 7e3f 5e13 823f 49b5 833f
00000180: 9aba 833f 9ed3 7d3f b32b 783f a8e1 7a3f
00000190: 0667 863f 26ff 823f b7ff 7d3f b9d1 803f
000001a0: c5ba 7e3f cc18 7f3f 800e 7c3f 197c 7a3f
000001b0: ca38 7a3f db41 823f 4b95 7f3f 0890 7c3f
000001c0: 52f2 853f 3be4 773f 93a3 7c3f 73a7 813f
000001d0: 1764 7b3f 3170 7f3f aedb 813f 0425 853f
000001e0: b1f4 7a3f 4d49 863f 5e13 7e3f 5763 7c3f
000001f0: ad0c 813f 54b1 833f b586 773f 204b 843f
